…
100%|██████████| 1.65M/1.65M [00:00<00:00, 2.02MB/s]
100%|██████████| 4.54k/4.54k [00:00<00:00, 8.95MB/s]
Train size: 49800, Val size: 10200, Test size: 10000





1. Basic DNN

---------------------------------------
model_basic = BasicDNN()
summary(model_basic, input_size=(128, 1, 28, 28))
----------------------------------------


==========================================================================================
Layer (type:depth-idx)                   Output Shape              Param #
==========================================================================================
BasicDNN                                 [128, 10]                 --
├─Flatten: 1-1                           [128, 784]                --
├─Linear: 1-2                            [128, 384]                301,440
├─ReLU: 1-3                              [128, 384]                --
├─Linear: 1-4                            [128, 128]                49,280
├─ReLU: 1-5                              [128, 128]                --
├─Linear: 1-6                            [128, 10]                 1,290
==========================================================================================
Total params: 352,010
Trainable params: 352,010
Non-trainable params: 0
Total mult-adds (Units.MEGABYTES): 45.06
==========================================================================================
Input size (MB): 0.40
Forward/backward pass size (MB): 0.53
Params size (MB): 1.41
Estimated Total Size (MB): 2.34
…
--------------------------------
evaluate_model(model_long, test_loader)
--------------------------------

Test Loss: 0.1984, Test Accuracy: 0.9529
(0.19836182790994644, 0.9529)





4. CNN

-----------------------------
model_cnn = CNN()
summary(model_cnn, input_size=(128, 1, 28, 28))
------------------------------


==========================================================================================
Layer (type:depth-idx)                   Output Shape              Param #
==========================================================================================
CNN                                      [128, 10]                 --
├─Conv2d: 1-1                            [128, 32, 26, 26]         320
├─ReLU: 1-2                              [128, 32, 26, 26]         --
├─MaxPool2d: 1-3                         [128, 32, 13, 13]         --
├─Conv2d: 1-4                            [128, 64, 11, 11]         18,496
├─ReLU: 1-5                              [128, 64, 11, 11]         --
├─MaxPool2d: 1-6                         [128, 64, 5, 5]           --
├─Flatten: 1-7                           [128, 1600]               --
├─Dropout: 1-8                           [128, 1600]               --
├─Linear: 1-9                            [128, 10]                 16,010
==========================================================================================
Total params: 34,826
Trainable params: 34,826
Non-trainable params: 0
Total mult-adds (Units.MEGABYTES): 316.20
==========================================================================================
Input size (MB): 0.40
Forward/backward pass size (MB): 30.09
Params size (MB): 0.14
Estimated Total Size (MB): 30.63
…
